proyecto/src/model.tflite (tflite, 3336 bytes, 5 tensors)

arith.constant f4 [1, 8]
-0.37037173 -1.7402868 2.2325358 1.945038 -1.1679574 -0.10915695 -1.8024746 2.0674193
00000000: 5da1 bdbe b8c1 debf dee1 0e40 01f7 f83f
00000010: a17f 95bf ae8d dfbd 7db7 e6bf 9950 0440

arith.constant1 f4 [8, 16]
0.23305976 -0.09950096 -0.4604118 0.38470283 -0.2123067 0.115053214 -0.5263127 0.1774443
0.21144018 0.1541691 -0.4224413 -0.31149343 -0.22046603 -0.53178465 0.02969969 0.1924824
0.3368423 -1.4003673 -1.0003529 -0.32829443 0.27434766 0.8459518 -0.019728435 0.16728944
-1.5854077 -1.4833262 0.16788103 -0.80766493 0.06039039 -1.4994106 0.712834 -0.9874272
0.094562605 1.7469838 1.2895366 0.8566318 -0.14600322 0.18353535 -0.47396904 0.115000695
1.3455998 1.6291932 0.06334106 1.33179 0.24910781 1.3765919 -0.29277155 1.3533714
-0.15389115 1.7078742 1.6454415 1.1120319 -0.26727504 -0.539636 -0.11128958 -0.17333739
1.2229223 1.1870388 0.6169799 1.4030578 0.07606458 1.2338294 0.40163633 0.59652543
0.36784706 -2.0945644 -0.6961715 -0.2869737 0.03800787 0.33457106 0.38961327 0.2978087
-1.6789773 -1.8339332 0.14556016 -1.6246525 -0.19424263 -1.4602835 -0.0403587 -1.3176279
0.13163136 0.20325716 0.04756323 -0.15480708 -0.54994375 0.02911009 -0.11624591 0.45595622
-0.2119159 0.18271218 -0.51662135 0.3549974 -0.27692524 0.33122617 0.10527498 -0.0094249705
-0.29838946 -2.379807 -1.5096823 -0.63556194 0.32815954 0.051714726 0.4175843 0.55088824
-1.015452 -1.7003103 0.49339432 -2.1200855 0.24741174 -1.8316405 -0.14679265 -1.3905069
-0.326039 1.4588811 0.9213325 0.41023088 0.5538123 -0.71341676 -0.11768526 -0.41154858
1.4583957 1.7600409 0.17354241 1.3884964 0.240985 1.0419031 -0.022090223 1.301028
00000000: 38a7 6e3e 29c7 cbbd 18bb ebbe c5f7 c43e
00000010: ed66 59be 05a1 eb3d 6ebc 06bf f5b3 353e
00000020: c683 583e 81de 1d3e 3a4a d8be 117c 9fbe
00000030: d9c1 61be 0a23 08bf c44c f33c 1b1a 453e
00000040: 9876 ac3e 3c3f b3bf 900b 80bf 3516 a8be
00000050: 4c77 8c3e 4c90 583f 879d a1bc ec4d 2b3e
00000060: a4ee cabf a2dd bdbf 01e9 2b3e 21c3 4ebf
00000070: ea5b 773d b0ec bfbf 4a7c 363f 07c8 7cbf
00000080: 0aaa c13d 2a9d df3f 890f a53f 394c 5b3f
00000090: de81 15be b1f0 3b3e 12ac f2be 7c85 eb3d
000000a0: 9d3c ac3f 6789 d03f f5b8 813d 1878 aa3f
000000b0: 1e16 7f3e 2a34 b03f 27e6 95be 463b ad3f
000000c0: a495 1dbe 9f9b da3f d49d d23f 1057 8e3f
000000d0: 46d8 88be 9625 0abf cbeb e3bd 5b7f 31be
000000e0: b888 9c3f e3f0 973f 65f2 1d3f 6697 b33f
000000f0: bfc7 9b3d 1fee 9d3f 47a3 cd3e e4b5 183f
00000100: 7356 bc3e 580d 06c0 4c38 32bf 38ee 92be
00000110: 24ae 1b3d e64c ab3e 647b c73e 627a 983e
00000120: bae8 d6bf 53be eabf b90d 153e 9df4 cfbf
00000130: 8ae7 46be 92ea babf 2a4f 25bd 08a8 a8bf
00000140: 5fca 063e a522 503e a9d1 423d bf85 1ebe
00000150: 1dc9 0cbf 4978 ee3c 5612 eebd 1873 e93e
00000160: 7b00 59be e718 3b3e 4c41 04bf 38c2 b53e
00000170: 25c9 8dbe 7a96 a93e 699a d73d 316b 1abc
00000180: 81c6 98be c24e 18c0 453d c1bf 30b4 22bf
00000190: 8704 a83e d2d2 533d 9ccd d53e 0307 0d3f
000001a0: 55fa 81bf c5a3 d9bf 2e9e fc3e 7baf 07c0
000001b0: 8159 7d3e 3273 eabf d050 16be 21fc b1bf
000001c0: 95ee a6be 9ebc ba3f 72dc 6b3f c809 d23e
000001d0: a5c6 0d3f 7ba2 36bf f804 f1bd 7fb6 d2be
000001e0: b6ac ba3f 0549 e13f 1ab5 313e 40ba b13f
000001f0: c6c4 763e 155d 853f 8ef6 b4bc 1688 a63f

sequential_1/dense_1_2/Add/ReadVariableOp f4 [8]
-0.09449616 -0.05215412 0.06630205 0.10855926 -0.059343033 -0.051522646 -0.15010369 0.14659633
00000000: 3487 c1bd 8f9f 55bd 5fc9 873d 5154 de3d
00000010: ae11 73bd 6909 53bd c8b4 19be 591d 163e

sequential_1/dense_1/Add/ReadVariableOp f4 [16]
-0.12388421 -0.12182471 -0.23950903 -0.3959449 0.0022750557 -0.048738178 -0.07062052 -0.13331425
0.025835918 -0.042264376 0.01577099 -0.018509198 0.041935526 -0.03130976 0.04155513 0.024819411
00000000: 01b7 fdbd 3c7f f9bd db41 75be 4ab9 cabe
00000010: 1a19 153b afa1 47bd 7ea1 90bd 8883 08be
00000020: d9a5 d33c 691d 2dbd 2a32 813c 9aa0 97bc
00000030: 96c4 2b3d aa3e 00bd b635 2a3d 1452 cb3c

sequential_1/dense_1/MatMul f4 [16, 10]
-0.4658913 0.01703876 0.1926385 0.1309144 0.3973993 0.3602778 0.22865425 0.33433023
0.05504106 0.035589572 -0.54874825 0.8721568 -0.48822996 0.15996355 -0.31952617 0.28172192
-0.12473511 0.5771325 -0.33710036 0.099385984 -0.058825597 -0.25303122 0.6375212 -0.18050948
0.47357777 -0.5054829 0.5969402 -0.7803451 0.26939008 0.21592723 0.6278093 -0.5194365
0.23839363 0.3993988 -0.33928904 -0.43525687 0.56866837 -0.5851518 0.19038899 0.32757673
0.32393906 0.5494663 -0.055525426 -0.17450239 -0.46645916 0.004685758 0.5253925 0.16318175
0.35859853 0.24428599 -0.49706507 0.59545195 -0.44663864 0.44683033 0.37188786 -0.07338617
0.44736686 -0.40413058 0.54717976 0.29377547 -0.57481897 0.5535288 -0.39299613 -0.16355895
0.2131249 0.2929985 0.3379944 0.27392346 0.007797399 0.21477124 0.21234684 0.31776658
-0.31545463 0.20702387 0.14786407 0.2736453 0.10751568 -0.20611115 -0.13975625 0.19260831
-0.25238073 0.010761932 0.29976258 -0.6159388 -0.04878607 0.65582985 -0.52076226 0.09034706
0.30487195 0.05620896 -0.00561881 -0.08471668 -0.52080446 0.7413346 -0.65198135 0.4135047
0.03888196 -0.41851214 0.50626695 -0.048769124 -0.26552317 -0.02975637 0.52303094 0.20081846
0.08059626 -0.10178885 0.35946274 -0.3667796 -0.0566179 0.30243823 0.44306365 -0.33353716
-0.07017023 -0.15855972 0.13086039 -0.32805398 0.6626062 0.017783038 -0.5302926 0.22086042
-0.23354805 0.02742988 0.61637 -0.00046822234 0.4359404 0.35078362 0.19472046 -0.115981646
-0.1894023 0.02494801 0.3761559 0.1871755 -0.20122322 -0.4799683 0.83731985 -0.45876944
-0.036475632 -0.30416232 0.28223777 -0.13610014 -0.3745132 0.22088622 -0.024286311 0.19561876
-0.43046126 0.5696623 0.7315336 0.06458644 -0.19565836 0.60963833 -0.4674178 0.28490633
-0.3646845 0.6090445 -0.044490628 -0.5051151 0.08784366 0.50204605 -0.5283448 0.37785044
00000000: 4e89 eebe df94 8b3c 0743 453e 6d0e 063e
00000010: ec77 cb3e 5576 b83e 5724 6a3e 552d ab3e
00000020: bc72 613d 5fc6 113d c47a 0cbf ab45 5f3f
00000030: 47f9 f9be 7ccd 233e ef98 a3be db3d 903e
00000040: 1f75 ffbd f5be 133f 6b98 acbe e18a cb3d
00000050: 1cf3 70bd 4f8d 81be 9734 233f 7ad7 38be
00000060: c978 f23e 5467 01bf 13d1 183f b2c4 47bf
00000070: 7fed 893e 071c 5d3e 1cb8 203f caf9 04bf
00000080: 761d 743e 007e cc3e 4bb7 adbe fdd9 debe
00000090: 4094 113f 82cc 15bf 55f5 423e 23b8 a73e
000000a0: 57db a53e d3a9 0c3f a16e 63bd c1b0 32be
000000b0: bcd3 eebe fd8a 993b 1f80 063f 1e19 273e
000000c0: 3a9a b73e 1b26 7a3e 507f febe 8a6f 183f
000000d0: d2ad e4be f2c6 e43e 1668 be3e 7d4b 96bd
000000e0: 450d e53e 34ea cebe f913 0c3f bd69 963e
000000f0: 5627 13bf 10b4 0d3f ca36 c9be ff7b 27be
00000100: 6a3d 5a3e e603 963e 9a0d ad3e b23f 8c3e
00000110: 5381 ff3b feec 5b3e 7371 593e 4db2 a23e
00000120: 4583 a1be 11fe 533e ae69 173e 3d1b 8c3e
00000130: 2e31 dc3d cd0e 53be 431c 0fbe 1d3b 453e
00000140: 0c38 81be d052 303c 7b7a 993e 2aae 1dbf
00000150: e7d3 47bd 77e4 273f ad50 05bf e107 b93d
00000160: 2d18 9c3e 5e3b 663d ff1d b8bb f07f adbd
00000170: 7153 05bf 1bc8 3d3f 40e8 26bf e3b6 d33e
00000180: b142 1f3d 3947 d6be b69a 013f 22c2 47bd
00000190: a7f2 87be a1c3 f3bc 5be5 053f 5ba3 4d3e
000001a0: a70f a53d ac76 d0bd 800b b83e 89ca bbbe
000001b0: 2ce8 67bd 2fd9 9a3e 3dd9 e23e 62c5 aabe
000001c0: 69b5 8fbd 7b5d 22be 4400 063e b1f6 a7be
000001d0: 8fa0 293f bcad 913c 41c1 07bf 3c29 623e
000001e0: 3827 6fbe a1b4 e03c 6dca 1d3f bd7b f5b9
000001f0: 9533 df3e e999 b33e cd64 473e c987 edbd
00000200: adf2 41be c55f cc3c 8297 c03e efaa 3f3e
00000210: 760d 4ebe 68be f5be 985a 563f d4e3 eabe
00000220: 7967 15bd 2abb 9bbe 7881 903e d65d 0bbe
00000230: 32c0 bfbe ff2f 623e 16f4 c6bc 4950 483e
00000240: 6b65 dcbe 63d5 113f c945 3b3f e545 843d
00000250: aa5a 48be 4211 1c3f 6351 efbe 3edf 913e
00000260: edb7 babe 57ea 1b3f ce3b 36bd 394f 01bf
00000270: 60e7 b33d 1786 003f 9b41 07bf 9d75 c13e
